…
  mode: max
  model: sage
  num_layers: 3
  num_parts: 8
  optim: adam
  runs: 5
  sample: None
  sparse_ratio: 0.5
  use_bn: 1
  use_virtual: True
  vntran_act: sigmoid
  wandb: False
  wd: 0.0
loading cluster edges from: cluster_data/arxiv/arxiv_cluster_adj_8.pt
cluster edges: 38, total cluster edges:56
Model modules:
 VNGNN(
  (convs): ModuleList(
    (0): SAGEConv(128, 256, aggr=mean)
    (1): SAGEConv(256, 256, aggr=mean)
    (2): SAGEConv(256, 40, aggr=mean)
  )
  (bns): ModuleList(
    (0-1): 2 x BatchNorm1d(256, eps=1e-05, momentum=0.1, affine=True, track_running_stats=True)
  )
  (virtual_nodes): Embedding(8, 128)
  (vn_trans): ModuleList(
    (0): VNTransmitterUnit(
      (attn): AdditiveAttention(
        (query_proj): Linear(in_features=128, out_features=128, bias=False)
        (key_proj): Linear(in_features=128, out_features=128, bias=False)
        (score_proj): Linear(in_features=128, out_features=1, bias=True)
      )
      (W): Linear(in_features=128, out_features=256, bias=True)
    )
    (1): VNTransmitterUnit(
      (attn): AdditiveAttention(
        (query_proj): Linear(in_features=256, out_features=256, bias=False)
        (key_proj): Linear(in_features=256, out_features=256, bias=False)
        (score_proj): Linear(in_features=256, out_features=1, bias=True)
      )
      (W): Linear(in_features=256, out_features=256, bias=True)
    )
  )
  (vn_update): ModuleList(
    (0): SAGEConv(128, 256, aggr=mean)
    (1): SAGEConv(256, 256, aggr=mean)
  )
  (vn_merge): ModuleList(
    (0-1): 2 x WarpGateUnit(
      (H): Linear(in_features=256, out_features=256, bias=True)
      (G): Linear(in_features=256, out_features=256, bias=True)
    )
  )
  (gn_merge): ModuleList(
    (0-1): 2 x WarpGateUnit(
      (H): Linear(in_features=256, out_features=256, bias=True)
      (G): Linear(in_features=256, out_features=256, bias=True)
    )
    (2): WarpGateUnit(
      (H): Linear(in_features=40, out_features=40, bias=True)
      (G): Linear(in_features=40, out_features=40, bias=True)
    )
  )
  (gn_trans): ModuleList(
    (0): GNTransmitterUnit(
      (F_super): Linear(in_features=128, out_features=256, bias=True)
    )
    (1): GNTransmitterUnit(
      (F_super): Linear(in_features=256, out_features=256, bias=True)
    )
    (2): GNTransmitterUnit(
      (F_super): Linear(in_features=256, out_features=40, bias=True)
    )
  )
)
Parameters:
+-----------------------------------+------------+
|              Modules              | Parameters |
+-----------------------------------+------------+
|        convs.0.lin_l.weight       |   32768    |
|         convs.0.lin_l.bias        |    256     |
|        convs.0.lin_r.weight       |   32768    |
|        convs.1.lin_l.weight       |   65536    |
…
