…
  cluster_method: metis
  dataset: arxiv
  device: 1
  dropout: 0.5
  epochs: 1000
  experiment_name: None
  hidden_channels: 128
  log_steps: 1
  lr: 0.001
  mode: max
  model: gcn
  num_layers: 5
  num_parts: 1
  runs: 1
  seed: 42
  sparse_ratio: 1.0
  use_virtual: True
  wandb: False
  wd: 0.0
loading cluster edges from: cluster_data/arxiv_cluster_adj_1.pt
cluster edges: 1, total cluster edges:0
Model modules:
 VNGNN(
  (convs): ModuleList(
    (0): GCNConv(128, 128)
    (1): GCNConv(128, 128)
    (2): GCNConv(128, 128)
    (3): GCNConv(128, 128)
    (4): GCNConv(128, 128)
  )
  (bns): ModuleList(
    (0): BatchNorm1d(128, eps=1e-05, momentum=0.1, affine=True, track_running_stats=True)
    (1): BatchNorm1d(128, eps=1e-05, momentum=0.1, affine=True, track_running_stats=True)
    (2): BatchNorm1d(128, eps=1e-05, momentum=0.1, affine=True, track_running_stats=True)
    (3): BatchNorm1d(128, eps=1e-05, momentum=0.1, affine=True, track_running_stats=True)
    (4): BatchNorm1d(128, eps=1e-05, momentum=0.1, affine=True, track_running_stats=True)
  )
  (vns): VirtualNode(
    (vn_emb): Embedding(1, 128)
    (mlp_vns): ModuleList(
      (0): Sequential(
        (0): Linear(in_features=128, out_features=128, bias=True)
        (1): LayerNorm((128,), eps=1e-05, elementwise_affine=True)
        (2): ReLU()
      )
      (1): Sequential(
        (0): Linear(in_features=128, out_features=128, bias=True)
        (1): LayerNorm((128,), eps=1e-05, elementwise_affine=True)
        (2): ReLU()
      )
      (2): Sequential(
        (0): Linear(in_features=128, out_features=128, bias=True)
        (1): LayerNorm((128,), eps=1e-05, elementwise_affine=True)
        (2): ReLU()
      )
      (3): Sequential(
        (0): Linear(in_features=128, out_features=128, bias=True)
        (1): LayerNorm((128,), eps=1e-05, elementwise_affine=True)
        (2): ReLU()
      )
    )
    (convs): ModuleList(
      (0): GCNConv(128, 128)
      (1): GCNConv(128, 128)
      (2): GCNConv(128, 128)
      (3): GCNConv(128, 128)
      (4): GCNConv(128, 128)
    )
    (bns): ModuleList()
  )
  (jump): JumpingKnowledge(max)
  (lin): Linear(in_features=128, out_features=40, bias=True)
)
Parameters:
+------------------------+------------+
|        Modules         | Parameters |
+------------------------+------------+
|      convs.0.bias      |    128     |
|   convs.0.lin.weight   |   16384    |
|      convs.1.bias      |    128     |
|   convs.1.lin.weight   |   16384    |
|      convs.2.bias      |    128     |
|   convs.2.lin.weight   |   16384    |
…
